data/model_weights/iraa.pt (torch, 318049 bytes, 15 tensors)

encoder.0.conv1.weight f4 [64, 3, 3, 3]
000000 6c 2f 88 be 04 78 12 be ab 88 2e 3d 1b 3f 56 3e
       -0.2659868 -0.14303595 0.042610805 0.2092251
000010 0d 1d 7a be a4 e5 2d be 86 9a 9d 3e a7 45 2e 3e
       -0.24425144 -0.16982132 0.30781955 0.17018758
000020 4a 14 8d 3c fa 3c 17 be 8e 67 8b 3d fd c5 75 3e
       0.017221589 -0.14769354 0.06806861 0.24001308
000030 38 95 35 3d f8 af 56 be e5 fb be bb 12 a6 02 3e
       0.04433176 -0.20965564 -0.005828368 0.12758663
000040 12 79 b8 bc 35 47 99 bc 19 2e b8 bd 93 c0 45 3e
       -0.022518668 -0.018710712 -0.089931674 0.19311742
000050 c4 95 9e 3e 53 3f 98 bd b9 43 09 be 7a 67 e2 3d
       0.30973637 -0.07433953 -0.1340474 0.11054893
000060 9c 49 5e bd 14 c6 ee bd ba 19 6e bd 9e f6 5a bd
       -0.054269418 -0.11658874 -0.058130004 -0.05345785
000070 be 83 42 be 23 48 4c 3e 72 34 d1 bb 3d 14 4f be
       -0.18995568 0.19949393 -0.006384426 -0.20222564
000080 e9 d5 98 3e ff fd 69 3c ff d3 a1 be 8a a2 b2 3b
       0.298507 0.014281749 -0.31607053 0.005451505
000090 3b 7e fe 3c 6f ff 09 be a5 c8 70 3e 6f 8c 8a 3d
       0.03106605 -0.13476346 0.2351404 0.06765067
0000a0 48 66 cb bd 2e 6a 3e 3e 8b 2b dc 3d 0c f6 46 be
       -0.09931618 0.18595192 0.10750493 -0.19429797
0000b0 d6 4b f5 3b 67 8a 4c 3c 04 1d 65 be 89 81 22 bd
       0.007485847 0.01248417 -0.2237435 -0.039674316
0000c0 4b 03 56 3e 2b ab 5b bd c9 a5 5b 3d 58 36 34 3e
       0.20899694 -0.053630035 0.053624902 0.17598855
0000d0 57 eb b6 3c 52 57 00 bc b2 42 9d bd 6a 3c 96 3b
       0.022329016 -0.007833319 -0.07678737 0.0045848386
0000e0 d0 f5 1d be 86 02 8a bd cd 7f c0 bc 9d 3d 40 be
       -0.15425801 -0.067387626 -0.02349844 -0.18773504
0000f0 34 0f bb bd 22 d2 41 bd e2 d5 9c 3e ca b0 4d 3e
       -0.09133759 -0.04731954 0.3063193 0.20086971
000100 a1 c5 8b 3e c3 c6 3b bd d8 25 2a 3e 50 1f f2 3d
       0.27299216 -0.04584385 0.16615999 0.11822379
000110 6c 43 77 be 5f 7d 40 bd e3 97 18 be 55 b5 0d 3e
       -0.24146813 -0.046994563 -0.1490169 0.13838704
000120 88 53 6d bb 1a 2c 8a 3d 72 58 8f bd d1 03 5b 3c
       -0.0036213119 0.06746693 -0.069992915 0.013367609
000130 05 d4 57 3d 6f 10 f8 bd 8a fd a0 bd ef ac 24 be
       0.052692432 -0.121125095 -0.07860859 -0.16081594
000140 e3 c2 c3 3d a2 7b 88 3e 37 6e b1 3c ba 29 3d be
       0.09558656 0.26656824 0.021659 -0.18472949
000150 08 96 34 3d 67 93 85 bd 08 70 67 be 5b 80 e7 3d
       0.044088393 -0.065222554 -0.2260133 0.11303779
000160 23 2e 14 3e 9f 7b 39 be 44 af 47 3d 91 ef c3 3d
       0.14470725 -0.18113564 0.04875113 0.09567178
000170 1c 22 9f bc 3b 67 87 be 3d de 98 3d 57 42 91 bc
       -0.019425444 -0.26445946 0.074642636 -0.017731829
000180 3b 8e 3a be 6e 79 56 3e 30 0b 0c 3c 2a 7a a6 3d
       -0.18218319 0.20944759 0.008547589 0.0812877
000190 83 25 46 3e 1e 74 35 be 36 d7 63 be 0a 5d 3d 3e
       0.19350247 -0.17720076 -0.22250065 0.18492523
0001a0 a6 35 a8 bc d7 d8 2e be 3f 46 84 3e 5b 9c ae 3d
       -0.020533394 -0.17074905 0.25834844 0.08525916
0001b0 b4 e6 1f bd af 37 af 3b 7b b0 86 3d ff 2f 6c 3c
       -0.039038375 0.005347214 0.0657663 0.01441574
0001c0 3a 45 aa bd f1 42 fe 3c 32 78 31 bd 05 e7 ca bd
       -0.08313985 0.03103778 -0.043327518 -0.09907345
0001d0 80 be 59 3d d8 b6 53 3d d4 4d 1a 3e 53 82 4d 3e
       0.05316019 0.051688045 0.15068752 0.20069246
0001e0 69 c2 ce 3d e6 20 21 3d 34 7f 0f 3e 5a 22 f5 bd
       0.100956745 0.039338015 0.14013368 -0.11969443
0001f0 f8 0a f3 bd d6 62 be 3d 05 6f 83 bd f9 dc eb bb
       -0.118673265 0.09296195 -0.0641766 -0.007197973
000200 ae 5f bf 3d f9 d8 b5 3b 69 a5 6b bd 48 d6 a9 3d
       0.09344421 0.005549547 -0.057530794 0.08292824
000210 70 cf c9 bd 13 2e e7 bd fd f6 d2 3d f1 e3 de bd
       -0.09854019 -0.11288085 0.103010155 -0.1088332
000220 8b f4 30 3d 11 dd 9a 3e f8 2b 27 be fe 05 0c bd
       0.043201964 0.30246785 -0.16325366 -0.034185402
000230 d6 81 29 3e 33 41 20 be 54 71 23 be 02 bf ce bd
       0.16553435 -0.15649872 -0.159612 -0.100950256
000240 2b df a9 bd 77 4a fd bd 20 eb 0d bb 2f f0 4b bc
       -0.08294519 -0.12367719 -0.0021655038 -0.012447401
000250 66 41 9e 3d d5 1e 35 3d e3 a2 62 bc 63 4c a1 3d
       0.077273175 0.044218857 -0.0138327805 0.07875898
000260 7c 65 bd bc 61 c5 a4 3d 75 08 10 be e8 93 6c be
       -0.02311968 0.080454595 -0.14065726 -0.23103297
000270 c8 5d 90 3e 19 af 10 3e a9 ff 3d be 20 12 5f 3e
       0.2819655 0.14129294 -0.18554558 0.21784258
000280 c0 4e 42 3e ca 89 bc bd cc f5 28 3e 24 0c 33 3d
       0.18975353 -0.09205969 0.16500014 0.04371275
000290 68 ea 26 bc dd e3 4a be f7 39 53 be 4a e3 0b 3d
       -0.010187723 -0.19813485 -0.2062758 0.034152307
0002a0 fa 14 2f be 52 54 81 3d 3f e3 59 3d d4 d8 78 3e
       -0.17097846 0.06314911 0.053195234 0.24301463
0002b0 f8 49 a5 3d a8 7f e2 bd fe 4f 15 bb fc 74 93 bc
       0.08070749 -0.11059505 -0.0022783275 -0.018000118
0002c0 92 8d 8c 3c ee 13 19 3c 3b ec 70 3e fa 46 ec 3d
       0.01715735 0.0093431305 0.23527615 0.11536975
0002d0 37 1b 43 3e 36 de 39 3d d1 ce 61 be cc 67 e9 bc
       0.1905335 0.045377932 -0.2205155 -0.028491877
0002e0 cc ce ee bd 5e 59 c8 bc ef 2e d0 bc de fd 32 3e
       -0.11660537 -0.024456676 -0.025413005 0.17479655
0002f0 84 9d 02 3c 04 64 08 bc d1 b1 00 be ea ab cf bd
       0.007972125 -0.008324627 -0.12567832 -0.10140212
000300 bb 1c 9a 3d 36 ca da bd 6d 8d 65 bd 42 93 a9 bd
       0.07525011 -0.106831 -0.056043077 -0.0828004
000310 cb 9c 81 be b7 9b 25 bd 7a 69 03 3e 5f 5d 9d 3d
       -0.25314936 -0.040431704 0.12833205 0.07683825
000320 a5 a8 c0 3d 9c f5 7f 3e 34 4b 21 3e a1 2d 27 3e
       0.094071664 0.24996036 0.15751344 0.16326
000330 58 2e 0d 3e f9 17 8f ba 57 c2 44 3e 28 0f 67 bd
       0.1378721 -0.0010917179 0.1921476 -0.05641094
000340 b0 ee 50 bd d8 72 1c 3c e1 c6 0a bc e4 67 e7 bd
       -0.05100888 0.009548865 -0.008470268 -0.112991124
000350 5b 1c 27 bd fb b0 b7 bd 83 11 2b be cd b2 13 3c
       -0.040798526 -0.08969303 -0.16705899 0.009014797
000360 43 1f cb bd 19 9e 19 be 26 75 26 be fc 07 5f bd
       -0.09918072 -0.15001716 -0.16255626 -0.054450974
000370 73 d9 d5 bd e7 f8 0f be 85 51 e9 bc 05 3c 00 3d
       -0.10441866 -0.14059792 -0.028481254 0.03130724
000380 27 34 d1 3d b9 dd 33 3b fd 92 2e 3d ec c0 a8 3b
       0.102150254 0.002744539 0.042620648 0.005149951
000390 2b 7c 83 3d 88 a9 46 3d e5 ce 30 bd d0 ad 78 bc
       0.064201675 0.04850152 -0.04316606 -0.015178159
0003a0 3b 44 cc 3c 46 c8 8f 3d 06 b9 4e 3d 53 1f c8 3d
       0.024934879 0.07020621 0.05046942 0.097715996
0003b0 0d 0c ad 3d 10 5f 91 3d 01 d3 a5 3d d1 7d 90 bc
       0.08449564 0.0709821 0.080968864 -0.017638119
0003c0 37 89 37 3c 2e f4 af 3b 51 d3 9f 3d d3 e1 8d 3d
       0.011202148 0.0053696847 0.07803977 0.06927838
0003d0 28 14 13 be 17 dc f4 3c 74 6b a1 3d 59 e6 02 be
       -0.14363158 0.029890103 0.07881823 -0.12783183
0003e0 68 e4 6e be 9b 90 d2 3d 6a 4b bb 3d 0f 22 46 bd
       -0.23329318 0.102814876 0.091452435 -0.048372325
0003f0 73 c3 74 3c 73 dd 46 be a8 21 05 3e 98 54 ea 3d
       0.014939177 -0.19420414 0.1300112 0.11441916

encoder.0.conv1.bias f4 [64]
000000 9e 08 e0 be ac d1 e8 be c7 e0 eb be d6 c1 b5 be
       -0.43756574 -0.45472467 -0.4606993 -0.35499448
000010 17 be 2d bf db b5 80 3d d7 52 14 bf 68 ae 2c bd
       -0.6786818 0.06284686 -0.57938904 -0.042158514
000020 df 13 01 be 32 43 5a 3d a3 6a b1 be ae de cb be
       -0.12605236 0.05328674 -0.3465167 -0.3981833
000030 17 f3 5f be 20 b0 ca bd 77 fb 8b be 14 bc 82 be
       -0.21870075 -0.098968744 -0.2734029 -0.25534117
000040 a8 08 f3 be d5 4f 03 be cc 32 bc bd d0 08 1a bd
       -0.47467542 -0.12823422 -0.09189376 -0.03760606
000050 3e a3 2a bf 00 02 b8 be a1 d7 d5 be 7b 25 b6 be
       -0.6665534 -0.35939026 -0.41766074 -0.3557547
000060 7e 0b cd be da 9c f8 be 45 6d e7 bd a7 8e d3 bd
       -0.4004783 -0.48557168 -0.113001384 -0.10329943
000070 c0 42 75 3d 37 4f 8e be 4c 88 94 be 55 2c 87 3c
       0.05987811 -0.2779481 -0.29010236 0.016500631
000080 cc a2 04 3e a1 17 b9 be e1 ba 72 3d d8 0e c9 be
       0.12952727 -0.3615084 0.059260253 -0.39269137
000090 44 66 1c bf 9b 28 e1 be 78 d8 2c be 80 e0 d7 be
       -0.61093545 -0.43976292 -0.16879451 -0.42163467
0000a0 14 61 06 bf dd d8 92 be ab 24 1c bf a8 b2 a2 3d
       -0.5249188 -0.2868108 -0.6099345 0.07944232
0000b0 9d 5f 8e be 4a 2f 36 bf 88 51 da be 57 7b 5a bd
       -0.27807322 -0.7116591 -0.42640328 -0.053340282
0000c0 7b 36 a4 bb ec 66 de be 94 62 4c be 09 93 42 3d
       -0.0050113774 -0.43437898 -0.1995948 0.047503505
0000d0 b2 eb 6c 3d 05 7b 06 3d 9f 8f d3 be d9 f8 84 be
       0.057841964 0.032832164 -0.41320512 -0.25971106
0000e0 39 fb 70 3d b3 4f 38 bf 66 03 a1 bd b4 c2 2b bf
       0.058833335 -0.7199661 -0.07861976 -0.6709397
0000f0 f3 94 64 3d f0 2e c7 3d 9c 2a d9 be ed f5 e9 be
       0.05580611 0.097257495 -0.4241532 -0.4569544

encoder.0.conv2.weight f4 [64, 64, 3, 3]
000000 2e 6b 9d 3a d9 29 b8 bb f8 4d 74 bb b8 04 01 bc
       0.0012010091 -0.005620223 -0.0037277918 -0.00787466
000010 2b c9 a4 3a c4 4e 77 ba cc dd a1 bb e3 45 1c bb
       0.001257216 -0.0009434039 -0.0049397703 -0.0023845367
000020 09 75 10 bb b4 a6 19 bc 72 25 24 bc f6 0e 02 bc
       -0.0022042415 -0.009378124 -0.010018693 -0.007938137
000030 bc 9d 29 bc 4f 5f 01 bc 14 50 f9 bb 0d fe ea bb
       -0.010352548 -0.0078962585 -0.007608423 -0.0071713985
000040 bc ac 2e bc bf 49 48 bc a8 48 c0 ba 51 c6 cc bb
       -0.0106613 -0.012224614 -0.0014670091 -0.006249227
000050 09 a5 d2 bb 39 0c cf 38 44 90 7e bb 09 99 a3 bb
       -0.006428365 9.872806e-05 -0.0038843313 -0.0049926084
000060 27 26 51 ba 5d 64 06 bc 22 8f f8 bb 34 b9 44 bc
       -0.00079784024 -0.008202639 -0.007585422 -0.0120070465
000070 9a 41 59 bc e8 b2 52 bc 26 50 20 bc a9 6b 2f bc
       -0.01326027 -0.012860037 -0.009784734 -0.0107068205
000080 95 c4 5c bc 53 a9 50 bc ac d4 48 bc 34 51 06 bc
       -0.013474603 -0.012735683 -0.012257736 -0.008198071
000090 41 92 6f bc e4 60 1f bc df be 24 bc 2d 02 66 bc
       -0.014622272 -0.00972769 -0.010055273 -0.014038605
0000a0 94 f0 7b bc 85 cc 12 bc d8 80 29 bc b9 4e 08 bc
       -0.0153771825 -0.008959894 -0.01034566 -0.00831955
0000b0 02 51 1e bc 1d 92 c0 b9 94 6e b7 ba 2a 5e 7a 3a
       -0.009662868 -0.00036729957 -0.0013994747 0.00095507747
0000c0 c7 37 bf ba 41 ac 97 ba 2f dc cc bb d2 88 44 b9
       -0.0014588766 -0.0011571721 -0.006251834 -0.00018742986
0000d0 52 d8 75 bb 5a 74 31 bb 91 31 d2 ba 2c 1d fe 39
       -0.003751297 -0.0027077408 -0.00160365 0.0004846839
0000e0 94 6d 45 b9 32 59 c2 bb 5f ab 04 3a 75 27 34 3b
       -0.00018828205 -0.005931043 0.00050609367 0.0027489339
0000f0 bf e6 bd b9 32 8c 1f ba 33 47 0e 3b 22 66 6e bc
       -0.00036220808 -0.00060862594 0.0021709919 -0.014550718
000100 16 3d 67 bc 6e 88 70 bc b6 c7 65 bc 40 70 92 bc
       -0.014113685 -0.014680965 -0.014024666 -0.01787579
000110 e4 7b 86 bc 9f c5 85 bc 28 6c 76 bc a2 3e 44 bc
       -0.016416498 -0.016329585 -0.015040435 -0.011977823
000120 73 a2 4f 3c 72 b3 14 3c 28 1b 2a 3c 7c 6f 4f 3c
       0.012673008 0.009075986 0.010382451 0.012660857
000130 07 52 0d 3c 41 8d 07 3c 96 23 37 3c 28 8e 0d 3c
       0.008625514 0.008273424 0.011177918 0.00863985
000140 1c 0b fc 3b ae f8 0d bc af f6 07 bc fc 46 b5 bb
       0.007691754 -0.008665247 -0.00829856 -0.0055321436
000150 3b 0e 62 bb 4c 5c ef bb d7 df 34 bc 1a 11 b2 bb
       -0.0034493345 -0.007304704 -0.011039696 -0.0054341676
000160 eb d1 11 bc 04 b2 19 bc a5 fc 10 bc 50 9f de bb
       -0.008900146 -0.009380821 -0.008849298 -0.006793894
000170 ab 11 45 bc 39 ab 18 bc ff 3c c3 bb d4 6d 8f bb
       -0.012028138 -0.009318166 -0.005958199 -0.004377106
000180 89 0b 0d bc aa 58 fe bb 51 13 1d bc 94 5b 25 bc
       -0.008608707 -0.0077620344 -0.009587125 -0.010092635
000190 84 a4 fb bb e5 15 23 bc 37 75 3f bc 94 ad 30 bc
       -0.007679524 -0.0099539505 -0.011685661 -0.010783572
0001a0 d6 d2 87 bc d5 14 56 bc b0 ec 2f bc 87 77 71 bc
       -0.016580027 -0.01306649 -0.010737583 -0.01473797
0001b0 f2 bd 44 bb a8 35 ca bb 7b 26 20 bc 18 a6 f7 bb
       -0.0030020443 -0.006170947 -0.009774799 -0.0075576417
0001c0 f0 b8 6e bb 0b 7a 42 bc c6 ee d8 bb 0c d8 5b bc
       -0.003642615 -0.011869918 -0.006620261 -0.013418209
0001d0 ab de 88 bc c2 47 4f bc b9 e5 d1 bb c8 14 72 bc
       -0.016707739 -0.012651386 -0.006405559 -0.014775462
0001e0 8a 52 12 bc 29 d8 12 bc 81 3b 50 bc 02 e5 1a bc
       -0.008930812 -0.008962669 -0.012709499 -0.009454014
0001f0 81 c2 2e bc f8 f8 53 bc 93 8d ad bb bb f6 46 bc
       -0.0106664905 -0.012937777 -0.005296418 -0.012143786
000200 68 4e 88 bc 94 0a 3e bc e6 d5 2d bc 48 41 2d bc
       -0.01663895 -0.011599202 -0.010610079 -0.010574646
000210 f4 e6 e8 bb c2 2e 57 bc 9b 5d 30 bc 26 80 69 bc
       -0.00710761 -0.0131337065 -0.010764505 -0.014251744
000220 b4 20 7e bc 26 57 65 bc e4 ff 34 bc e1 8f 44 bc
       -0.015510727 -0.013997829 -0.011047337 -0.011997194
000230 2d 5f d4 bb f0 08 46 bc a5 02 65 bc 3e 43 1b bc
       -0.0064810724 -0.012087092 -0.013977681 -0.009476481
000240 10 ac c2 bb b0 ff 5a bc 31 28 16 bc 2f aa 01 bc
       -0.0059409216 -0.013366625 -0.009164856 -0.00791411
000250 f2 dd 43 bc 3b b3 25 bc 52 78 cd bb 66 fa 42 bc
       -0.011954771 -0.010113533 -0.006270447 -0.01190052
000260 09 5d 3a bc d7 51 40 bc ef a8 ed bb 6a 84 3a bc
       -0.01137472 -0.011738262 -0.0072528045 -0.011384109
000270 15 10 ec bb cf 48 31 bc 81 4c 56 bc 37 96 2b bc
       -0.0072040656 -0.010820582 -0.013079763 -0.010472826
000280 4a f4 0e bc 4a 8d ff bb a3 c6 15 bc 68 96 96 bb
       -0.008725235 -0.0077988254 -0.009141597 -0.0045955665
000290 2e 56 ea bb 82 2d 30 bc 36 0b 19 bc 98 75 f6 bb
       -0.0071513867 -0.010753037 -0.009341052 -0.0075213425
0002a0 be 5a f0 bb 96 c0 22 bc 71 80 52 bc 41 98 30 bc
       -0.007335036 -0.009933611 -0.012848006 -0.010778488
0002b0 29 b0 53 bc 44 41 31 bc 72 19 2b bc b6 fa 52 bc
       -0.012920418 -0.010818783 -0.010443078 -0.012877157
0002c0 ca f0 76 bc 87 d6 29 bc 71 d8 61 bc a5 3c 0a bc
       -0.015072057 -0.010366089 -0.013784514 -0.00843731
0002d0 e4 4c 22 3b 64 5f da 3b f2 7f e8 3b f1 d1 96 39
       0.0024765069 0.0066642035 0.0070953304 0.00028766648
0002e0 e5 f0 b2 bb 8a fb a4 3a c6 f3 56 bb c6 4b a8 bb
       -0.005460846 0.0012587172 -0.003279911 -0.005135986
0002f0 fc dc 11 bc 8e 95 4f bc 7a 53 1a bc 87 1c 6d bc
       -0.008902784 -0.012669934 -0.009419316 -0.0144721335
000300 c1 22 57 bc 53 68 3d bc 17 ab 56 bc 39 75 32 bc
       -0.013130845 -0.011560517 -0.013102314 -0.010892206
000310 92 a0 3f bc 8e cb 0b bc 3f f1 f1 3a 0c ac a5 ba
       -0.011695998 -0.008532418 0.0018458738 -0.0012639775
000320 2d 98 99 ba 98 57 1f 3a 67 c4 ba 3b 20 df 09 3b
       -0.0011718326 0.0006078421 0.0056996825 0.0021037534
000330 7b 70 5a 3b af ca 6a 3b d4 c7 9d 3b 19 9e 21 bb
       0.0033331204 0.0035826375 0.004815081 -0.0024660884
000340 3c fe 5c bb d9 b8 84 3a 9d 9b a5 b9 49 c4 4e bb
       -0.0033720871 0.001012589 -0.00031587193 -0.00315501
000350 56 68 14 bb 26 81 10 bc 13 97 21 bb 0a b0 0b bc
       -0.0022645197 -0.008819854 -0.0024656698 -0.008525858
000360 b0 b6 9d bb e7 6e 0c bc 47 c1 26 bc 6d 81 ee b8
       -0.004813038 -0.008571363 -0.010177917 -0.00011372832
000370 2e f7 10 bc 92 d2 ab bb 82 54 7a ba c0 f3 cd ba
       -0.008847995 -0.005243608 -0.0009549336 -0.0015712902
000380 2e 0b e3 bb 9c e9 91 bb 2d 8e 58 3b ee f8 75 bb
       -0.006928823 -0.0044528972 0.0033043728 -0.0037532407
000390 4b 45 aa bb 46 de d8 bb ad dd 02 bc c6 8b 38 bb
       -0.0051962486 -0.006618294 -0.007987422 -0.0028159483
0003a0 be 7f fd ba b0 d4 ec ba bd 97 de 39 02 da 79 3b
       -0.0019340438 -0.0018068757 0.00042456193 0.0038124328
0003b0 ca 50 38 3b b1 9f 66 3a 1a a1 7f 3a 7d 4c a6 3b
       0.0028124326 0.00087975996 0.0009751484 0.005075036
0003c0 4e b3 ff ba b7 a9 37 ba e4 c1 a2 38 0c bb b1 bb
       -0.0019508393 -0.00070061855 7.760877e-05 -0.005423909
0003d0 ed a9 65 ba 14 34 3f bb 11 aa 17 bb 1f ee 4d bb
       -0.00087609777 -0.0029175328 -0.002314214 -0.0031422449
0003e0 39 2d 69 bb b4 6d 85 ba b5 50 18 bc 59 ae cc ba
       -0.0035579933 -0.0010179789 -0.009296586 -0.0015615924
0003f0 78 85 42 bc bd d9 44 bc 00 9d 79 bc 48 51 1e bc
       -0.011872642 -0.0120148035 -0.015235186 -0.009662934

encoder.0.conv2.bias f4 [64]
000000 cc b0 1a bc 06 26 66 be 47 a0 80 bb 52 cf ab bc
       -0.009441566 -0.22475442 -0.0039253565 -0.020972881
000010 f3 1b 8e bb c5 9e a7 bb a4 b1 5f bb 61 47 8a bd
       -0.004336828 -0.0051153623 -0.0034132982 -0.06751896
000020 47 5f 14 be 4c bf 1a be b9 ca 20 3c 74 72 0e bc
       -0.1448947 -0.15112036 0.009813958 -0.00869428
000030 88 c5 7b bd d5 bd 4a bd 32 59 8d be 69 6d fd bd
       -0.061467677 -0.049497444 -0.27607113 -0.12374384
000040 c0 18 84 bd 8c 43 9e bb 68 3c 2d be 30 51 bd bd
       -0.06450033 -0.0048298296 -0.16917574 -0.09244001
000050 b8 2f 2a bc 43 be 1c bd e6 57 c7 bd 00 48 e9 bb
       -0.010387354 -0.038267385 -0.09733562 -0.007119179
000060 04 55 b7 3b 94 36 44 be 1b 26 6d bc 08 09 b9 bb
       0.0055948514 -0.19161445 -0.014474417 -0.0056468286
000070 c1 a0 26 bc 2a 5a 53 bc e1 74 7c bd 00 39 86 be
       -0.010170163 -0.012899915 -0.061634902 -0.26215363
000080 f6 78 7b bb a9 5c 28 bc 3d a4 d7 bb 81 b9 e0 bb
       -0.003837166 -0.010275998 -0.006580858 -0.0068580513
000090 e0 5e 87 bb 5e d1 0b bc 81 29 26 be a2 9d c2 bd
       -0.004131183 -0.008533804 -0.1622677 -0.09502722
0000a0 c1 99 a7 bd 53 98 fa 3c 8b 23 9e bd 00 0b 10 bc
       -0.08183623 0.030590212 -0.07721623 -0.008791685
0000b0 14 05 19 bb 27 2d 42 bd 1e df c7 bd f2 33 af be
       -0.0023348974 -0.047406342 -0.09759353 -0.3421932
0000c0 e0 fe 11 be cf 94 b5 bd e0 5a 6e bb 66 f7 71 bb
       -0.14257383 -0.088662736 -0.0036370084 -0.0036921143
0000d0 e4 b0 e0 bd f9 01 3a be db 56 8d bd 93 db 1c bb
       -0.10971239 -0.18164815 -0.06901332 -0.0023934587
0000e0 b1 31 26 be 71 5d 32 bc 6f 03 2c bd bb ef ab bc
       -0.16229893 -0.010886536 -0.041995462 -0.020988336
0000f0 db 0f ab bc ba 27 88 be 51 7f d6 3d 20 d5 08 be
       -0.020881584 -0.2659281 0.104735024 -0.1336255

encoder.2.conv1.weight f4 [32, 64, 3, 3]
000000 bc 4a 4c bc f8 6d f3 bb 7b fb 1b bc d6 fe ff bb
       -0.01246899 -0.007428881 -0.009520407 -0.0078123612
000010 27 62 a8 bb 34 8c 25 bc c0 e0 cd bb 7e 95 b9 bb
       -0.005138654 -0.010104228 -0.006282896 -0.005663573
000020 ec 3b fb bb a9 38 e6 3c bb 9d 55 3d c9 d0 99 3d
       -0.0076670554 0.02810319 0.052152377 0.07510526
000030 eb 05 bd bd 2b 92 b4 3d a9 a1 08 3d 72 84 c0 bc
       -0.092296444 0.08816942 0.033357296 -0.023500655
000040 99 79 01 bd 16 7d 05 3d af b8 13 3b 07 5d bf 3b
       -0.031610105 0.032589994 0.00225405 0.005839947
000050 90 1e d8 3b 6f d3 e0 b9 35 b9 d7 3b c6 2c 2f 3b
       0.00659544 -0.0004288214 0.0065833577 0.0026729568
000060 6f e5 04 3b 62 3e a0 3b 31 3c 83 ba 78 1c 4e 3c
       0.0020278355 0.004890249 -0.0010012445 0.01258003
000070 85 93 36 3e 17 d6 9a 3e 08 19 9e bd f6 4f 4d be
       0.17829712 0.30241463 -0.07719618 -0.20050034
000080 6b c5 85 be 35 55 21 3e 11 2e 31 3d ee ae b0 bd
       -0.2612718 0.1575516 0.043256823 -0.08627115
000090 50 6e 6a 3b 18 39 c6 3a cd bf 3b 3a 2d c3 bd 3a
       0.0035771318 0.0015123216 0.00071620644 0.0014477723
0000a0 6c 33 27 3b 23 18 83 3b f4 43 0f ba 78 3c e9 ba
       0.0025512828 0.00400068 -0.0005465143 -0.001779451
0000b0 5c e4 0a 3b 72 68 a3 3b 1e 6b 9b 3a ec d8 cc 3a
       0.0021193242 0.004986816 0.0011857485 0.0015628613
0000c0 45 0c 37 3b 0b a8 c5 3b 54 8f 8b b9 a3 53 ab ba
       0.0027930897 0.006031995 -0.00026618934 -0.001307119
0000d0 8b 9a b6 3b a5 3f d5 39 9e 9d f7 be fe ea 8c 3e
       0.005572622 0.00040673945 -0.4836244 0.27523035
0000e0 cc 46 b5 3e 91 c2 28 3e 61 69 c7 be 3a f1 93 be
       0.35405576 0.16480471 -0.38947585 -0.2889498
0000f0 c7 63 ae be ba c1 ac 3c 7f 71 80 bc 86 16 4f bc
       -0.340605 0.02108847 -0.01567912 -0.012639647
000100 78 01 da 3c 7d b5 43 3d 16 c0 3c be 13 ca 6b be
       0.026612028 0.047780503 -0.1843265 -0.23026304
000110 82 36 0c bd 22 f4 ae 3d 03 30 5d bb 3e b1 d9 3d
       -0.03423167 0.085426584 -0.003375054 0.106295094
000120 97 4a bf 3d db 0c b3 bd b4 5a 06 3e 85 03 17 3e
       0.09340399 -0.08742686 0.13120538 0.14747436
000130 41 54 e1 be 28 ec 69 bf f7 50 07 bd 50 60 13 3c
       -0.44009593 -0.9137597 -0.0330362 0.008995131
000140 c8 92 dc bd 61 23 d2 bd 69 9b a2 3d 52 27 b2 3d
       -0.10770184 -0.10260654 0.079397984 0.08698906
000150 a8 41 d8 3b 05 ef 1f 3d 6c 1b 77 3d 07 48 82 3a
       0.0065996237 0.039046306 0.060328886 0.0009939679
000160 19 e3 9b bd 1d 15 32 bc 2f 88 d4 3d f1 b6 e8 3d
       -0.07611675 -0.010869292 0.103775375 0.11363018
000170 bb 3e a6 bd 62 25 af bb 72 8a 44 be 00 dd 82 3c
       -0.08117434 -0.0053450326 -0.19193438 0.015974522
000180 45 7f c2 be e6 83 02 bf c6 b1 ff be b0 30 71 3b
       -0.37987724 -0.5098251 -0.49940318 0.0036802702
000190 35 55 d8 ba 9d 70 b1 3b 3a d3 e5 3b 61 3d a7 3b
       -0.0016504886 0.005415036 0.0070137056 0.0051037525
0001a0 75 a2 6c 3a e0 ba 0e 3c 0e 13 b7 3b d1 58 4e 3b
       0.00090268935 0.008711547 0.0055869883 0.0031486044
0001b0 e7 5a 44 3e c6 30 bb 3e 05 b9 b4 3c 74 14 f3 3c
       0.19175301 0.3656065 0.02206088 0.029672839
0001c0 e0 7b be be 8b d2 9a be 87 66 dd bd ff 5d e7 be
       -0.37203884 -0.30238757 -0.10810571 -0.451889
0001d0 22 0a 0e bf 7e 14 ca 3d 40 d5 28 3e ad e0 42 be
       -0.5548421 0.0986719 0.16487598 -0.1903102
0001e0 83 b3 8e 3e 8b 03 c1 3d f4 03 40 3e 42 e7 f4 bc
       0.27871332 0.09424504 0.18751508 -0.029895429
0001f0 6e 11 c6 be 83 b1 ef bd be 52 92 3d f3 79 48 3d
       -0.38685173 -0.117037795 0.07144688 0.048944425
000200 55 e6 af bc 3c 8f 34 be 82 31 77 bd b2 cc 48 bd
       -0.021472136 -0.17632765 -0.06034995 -0.049023338
000210 fd 85 16 3e 10 96 86 bd 4c bf 3a 3e 16 c1 f1 3d
       0.1469955 -0.06571591 0.18237036 0.11804406
000220 c9 2a 4b 3e 3e bc 2b 3e cc f1 d6 be e9 52 ad be
       0.1984054 0.16771027 -0.4198135 -0.33852318
000230 06 06 53 be 83 04 05 bf 16 62 d2 be a4 31 48 bf
       -0.20607767 -0.5196001 -0.4109046 -0.78200746
000240 d1 f5 6e 3d 9f 7e 18 3e ca d3 c6 bc 16 6f cb bc
       0.058339898 0.14892052 -0.02427091 -0.024833243
000250 b3 b9 33 be 65 8a 0a 3c 8f 9d d2 bc 09 4f 2d 3d
       -0.17551307 0.008455847 -0.025709895 0.042311702
000260 0d f3 9d 3d 27 98 96 3a e6 b3 4c bb 9a ba 80 3b
       0.07712374 0.0011489437 -0.0031235158 0.0039284946
000270 e4 c3 75 3c dd a7 37 3c 36 a7 39 3c 54 b8 a2 3b
       0.015000317 0.011209455 0.01133137 0.0049658213
000280 39 67 ae 3a eb 27 20 bc 8c 83 06 bb d0 98 7d 3d
       0.0013305909 -0.009775142 -0.0020525185 0.06191331
000290 fb e8 1d 3d 9b 40 0b bc 85 88 41 bd e1 a4 a6 bd
       0.038552266 -0.00849929 -0.047249336 -0.08136917
0002a0 8b 32 60 3d a4 e4 b1 bd 23 0b 56 be 3c 80 49 bb
       0.0547357 -0.08686188 -0.20902686 -0.00307466
0002b0 10 2e 41 3d 05 18 3c bd 01 f4 1a bd 17 7f 8e 3d
       0.04716307 -0.045921344 -0.037830357 0.06957834
0002c0 0d ea 63 3b a3 10 88 bd db 68 77 ba 1f ad 60 3d
       0.0034776956 -0.06643798 -0.0009437927 0.0548526
0002d0 5c eb fc 3a aa 40 b1 3b 13 a1 cf 3b 1e 51 22 3b
       0.0019296217 0.00540932 0.00633634 0.0024767588
0002e0 7b aa c2 3b 7d b1 de 3b 01 32 1d 3c e2 16 55 3c
       0.005940733 0.0067960606 0.009594441 0.013005944
0002f0 97 0a 3f 3c 74 58 88 bc 18 5a 4a 3a 2c 50 92 bb
       0.01166024 -0.01664374 0.00077191135 -0.0044651236
000300 e0 d9 32 bc fc d5 8f 3c bb b5 da 3c 3e da ae 3c
       -0.010916203 0.01755809 0.026697984 0.0213443
000310 c6 aa 01 3d e0 2e f1 3c e3 ee 8d 3d ad 8d 86 3c
       0.031657003 0.029441297 0.0693033 0.016424978
000320 b6 d6 7e 3b ae 92 cf 3d 7a 88 5b bd bb 3f 47 bc
       0.0038885302 0.10135399 -0.05359695 -0.012161191
000330 f1 00 a1 3c 5c 86 ad bc 68 98 94 3d 24 7a c3 bb
       0.01965377 -0.021182232 0.07255632 -0.005965488
000340 03 99 01 bb 38 39 96 bb e6 9b 63 bb 9a a5 37 b9
       -0.001977504 -0.0045844577 -0.0034730374 -0.00017513931
000350 26 2f 94 bb 02 f3 1b bb cc a1 ee 39 06 8b 7c 3b
       -0.004522222 -0.0023795967 0.00045515446 0.0038535013
000360 20 d2 ca 3e 85 ab fb 3e a0 94 2c 3d 4d cf e5 be
       0.39613438 0.49154297 0.042133927 -0.4488472
000370 54 27 06 bf 31 b3 ca be 2c 42 a4 be 2d 38 1e bf
       -0.5240376 -0.39589837 -0.32081735 -0.6180447
000380 59 aa 86 bf c4 bf c8 3c cd 19 c4 bd c3 bd 96 be
       -1.0520736 0.024505503 -0.095752336 -0.29441652
000390 0f eb e7 be 8a 20 97 be 91 9d 1f bd e7 21 58 3d
       -0.45296523 -0.29517013 -0.038968626 0.052766707
0003a0 5f 75 5a 3d be 4b 0d 3e 5c 62 92 bb 78 e1 c4 bb
       0.05333459 0.13798425 -0.0044672918 -0.0060083233
0003b0 ea e1 12 bc 4e 63 04 bc 84 0d c0 bb 55 f8 ef bb
       -0.008964995 -0.008080317 -0.005860986 -0.0073233047
0003c0 1d 7c 9f bb 28 34 03 bc a9 fc 46 bb 6b 6f b7 39
       -0.0048670904 -0.0080080405 -0.0030363 0.00034987493
0003d0 4d 8c db ba a7 cf e8 ba 60 3b cb bb 7c cc cb bb
       -0.0016750187 -0.001776208 -0.0062021464 -0.006219445
0003e0 28 30 95 ba 41 19 67 bb 26 f3 aa b9 f1 6a 80 3b
       -0.001138215 -0.0035262855 -0.00032606086 0.0039189984
0003f0 5e 8f cd bb 60 7f 32 bb 7a c6 6b bb 1d 2e 37 bb
       -0.006273194 -0.0027236566 -0.0035976456 -0.002795107

encoder.2.conv1.bias f4 [32]
000000 f6 88 03 3c fd d7 5d 3c d0 42 eb 3c ad 70 07 3e
       0.0080282595 0.013540265 0.028718382 0.13226576
000010 6e 6a 35 3c fa dc d5 bc 81 c0 94 3c 70 a5 ba 3d
       0.011072738 -0.026106346 0.0181582 0.09113586
000020 9d b5 16 3e 6e c6 c8 3d 71 c0 5d 3d d4 44 0c be
       0.14717717 0.098034725 0.054138605 -0.13698131
000030 7c 69 ff bd bb b9 04 3d bd fd 87 3d 95 9e 39 be
       -0.124712914 0.03240369 0.066401936 -0.181269
000040 1c 91 4a 3e a6 61 31 bd 6b 12 20 bc 4e 16 ec bc
       0.19781917 -0.043306015 -0.009770016 -0.02881923
000050 61 84 9a 3d 49 ae 9b 3d 20 ab a0 bd 8b 1b 6b 3d
       0.075447805 0.07601602 -0.078451395 0.057399314
000060 ee 49 b9 3b c0 e3 9d bb 25 27 c3 3b fc 60 ef 3c
       0.005654565 -0.0048184097 0.005955594 0.02922105
000070 8b a0 18 3e 66 a4 38 ba 00 f1 5f bb 8b f3 3d bf
       0.14904992 -0.000704354 -0.0034170747 -0.7419974

encoder.2.conv2.weight f4 [32, 32, 3, 3]
000000 81 61 99 be 0c 04 86 be 9e 19 d1 bc 0f 1d fb bd
       -0.29957202 -0.26174963 -0.02552491 -0.12261402
000010 00 9a 1a be 5f da 9d bc 75 2f 1d bd db bd ac bd
       -0.15097809 -0.019269167 -0.038375337 -0.084346496
000020 78 5a 95 bd 0a 47 07 bd f8 3e 9f bc 16 bd 85 3d
       -0.07292646 -0.033026733 -0.019439206 0.06530206
000030 23 11 0f bd 2a 63 30 be a0 9c a8 bd 28 36 48 3e
       -0.034928452 -0.17225328 -0.08232999 0.19551909
000040 76 cd 29 bc cd da 95 bd 71 30 90 3e 1f 62 4b 3d
       -0.010363927 -0.073171236 0.28161958 0.049654122
000050 3f f4 cc 3c ef 45 cf 3d 49 b4 37 3e 81 00 2a 3e
       0.02501881 0.10120761 0.17939867 0.16601755
000060 18 27 5e 3e 7e 9b 4e 3e 6f 65 ab 3e 22 1c 56 3d
       0.216946 0.20176503 0.33475825 0.052272923
000070 79 8c 32 be 68 7e 30 be d8 24 c5 3d 0a 7e ed be
       -0.17436399 -0.1723572 0.09626168 -0.46385223
000080 e8 8b 50 be 90 f9 3f 3d 15 1d 55 bd 60 b3 47 bd
       -0.2036587 0.04686886 -0.052029688 -0.04875505
000090 8a 3d 01 bf b4 b5 4e be 81 af 16 bd 9f f2 14 be
       -0.50484526 -0.20186502 -0.036788467 -0.14545678
0000a0 4a f5 8f be be df df be fc 17 d7 be fe f4 a5 be
       -0.28116828 -0.4372539 -0.42010486 -0.32413477
0000b0 c2 61 50 be c3 99 c5 bb d8 a6 4b bc 8f 72 ca bd
       -0.20349792 -0.0060302927 -0.012429915 -0.098851316
0000c0 76 1f 75 bd 35 11 42 3c ef 13 6c bd 6d b1 70 be
       -0.059844457 0.011844923 -0.057636198 -0.23505183
0000d0 ab 81 5e bd 4a 46 9d 3d 3d 40 c3 3b 67 a1 11 3d
       -0.05432288 0.07679422 0.0059585855 0.035554316
0000e0 60 ce 16 3e 63 78 f9 bc 04 7f 6d bc 5d 64 a2 3d
       0.14727163 -0.030452913 -0.014495615 0.07929299
0000f0 cb b3 91 3d bf 4d 15 3c 81 da b9 3d 05 ff 6e be
       0.07114371 0.009112774 0.090748794 -0.2333947
000100 91 be 63 be ca 51 9a bd 73 41 68 be 81 c3 ee bd
       -0.22240664 -0.07535131 -0.22681217 -0.11658383
000110 af d1 8e 3d f5 2f 4c be 21 8a 97 bc eb a6 00 3e
       0.06973588 -0.19940169 -0.018498482 0.12563674
000120 40 64 e6 3d 49 60 97 3d de 8a ef 3d 7f a6 c1 bd
       0.1124959 0.07391412 0.11696409 -0.09455585
000130 29 ee 56 be 3a 40 dc bd 7a 01 f5 bc d8 cf 15 bd
       -0.20989288 -0.10754438 -0.02990793 -0.03657517
000140 1f 0f 15 bd b5 39 84 be d1 5b 61 3c a4 43 92 3d
       -0.036391374 -0.25825277 0.013754801 0.07141808
000150 e2 aa 5e 3d 6f 74 44 3e 42 96 82 3e c9 e4 00 3e
       0.054362185 0.19185041 0.25505263 0.12587275
000160 6e 01 5b 3e a1 a0 a1 3e cc ec 72 3e e9 b9 2e 3d
       0.21387264 0.31567863 0.23723143 0.042657766
000170 4e 08 e0 3d 1a f5 0f 3e 3a ad 38 bd 49 7e c1 3b
       0.10939084 0.14058343 -0.045087077 0.005904947
000180 99 22 9e 3e 27 a2 34 3e 87 94 0b 3e 1f 2d be bb
       0.3088577 0.17639981 0.13630877 -0.0058037187
000190 60 d8 1a bd 98 b6 22 3c 6d af 22 be 34 c2 1c be
       -0.037804008 0.009931229 -0.15887232 -0.15308458
0001a0 dd 3e 2a be aa ae d6 bd 71 69 8a bd af 1a f6 3c
       -0.16625543 -0.10482533 -0.067583926 0.03004202
0001b0 87 f3 58 be 00 0c 26 be 9f 81 50 be 49 3d 97 be
       -0.21186648 -0.16215515 -0.20361947 -0.29538944
0001c0 ae 8c 1c be a9 53 94 3c ae 9f 6b be c2 e5 ac 3d
       -0.1528804 0.018106299 -0.23010132 0.0844226
0001d0 c3 8f 7e 3e 6e 40 32 bd b3 73 4e bd b1 c9 1b bd
       0.24859528 -0.043518476 -0.050403308 -0.038034145
0001e0 fd bf b3 bc 66 ff ea 3b 2f 8f 27 bd 05 47 bd bd
       -0.021942133 0.007171559 -0.040908035 -0.092420615
0001f0 c8 37 0b 3d 8d 59 e1 3d 04 9c 84 bd 4c ff c7 3d
       0.033988744 0.110034086 -0.0647507 0.09765491
000200 80 59 ca bb 6f 67 b2 3a 6d 54 c0 3d 6b 32 93 bb
       -0.00617522 0.0013611148 0.09391103 -0.0044920943
000210 8a d6 06 3d db 4e 82 3d 97 2d 2c bd 9a 39 5e be
       0.032919444 0.06362697 -0.042035665 -0.21701661
000220 d9 80 37 be 10 3a 49 be f7 39 65 be a3 97 2c be
       -0.17920245 -0.19651055 -0.22385393 -0.1685472
000230 10 df 46 bd 9f 5e 1c be 40 65 44 bd 27 4f 35 3d
       -0.048552573 -0.1527047 -0.047948122 0.04426494
000240 27 c3 c3 bd 72 d2 6c 3c d0 84 1c 3e 9c 8f 37 be
       -0.09558707 0.014454471 0.15285039 -0.17925876
000250 62 78 c2 be fc d4 af bd 23 74 27 bd 85 ab ad be
       -0.3798247 -0.085855454 -0.04088224 -0.33919922
000260 f2 61 73 be 78 26 16 bd bc 88 dd bd f4 f9 f2 bd
       -0.23767832 -0.03665778 -0.10817096 -0.11864081
000270 03 30 5a bd b9 64 05 bd e8 0a 2a bc 5f f5 77 bd
       -0.053268444 -0.03256676 -0.010378577 -0.06053674
000280 67 33 c5 bd 3d 0b 64 bb 5d a9 8b be 22 97 83 3e
       -0.09628945 -0.0034796738 -0.2727765 0.25701243
000290 00 a8 89 3e bc 4b ad be fe 4e f9 3c 9a 5a 6d 3d
       0.26885986 -0.33846843 0.030433174 0.057947733
0002a0 73 9a b2 bd e2 b5 93 3d 39 91 dd 3d 77 3d 8e bd
       -0.08720865 0.07212426 0.10818715 -0.06945317
0002b0 b9 1e cb bc 13 83 41 be b1 f3 56 be 75 de 59 be
       -0.024794923 -0.18897657 -0.20991398 -0.21276267
0002c0 09 7a 14 be c1 4d ae bd 44 10 c2 bd f3 ba 2e bd
       -0.14499678 -0.08510924 -0.09475759 -0.042658757
0002d0 fd ce 6f 3d 8e d4 e7 bd f3 72 9e bd bc 4b f4 bc
       0.05854701 -0.113198385 -0.077367686 -0.02982127
0002e0 b5 96 a3 be 08 d7 58 bd 44 34 20 bd 92 c6 ed bb
       -0.31950918 -0.052939445 -0.039112344 -0.0072563374
0002f0 e5 8b c7 3d 3b 4f 6e 3e fc 71 e0 bc fc 29 fe 3d
       0.0974348 0.23272412 -0.027398102 0.12410352
000300 7b 05 ab 3d 20 65 18 bf dd 0c 65 bd e0 40 e9 bd
       0.08350655 -0.59529305 -0.05592047 -0.11389327
000310 9e 66 3c bf e0 64 28 3b 93 49 46 be 54 24 84 bd
       -0.7359408 0.0025694892 -0.19364004 -0.064522415
000320 66 20 b4 3d 72 aa 6d be 92 dd 88 3b 07 c7 b9 3d
       0.08795242 -0.23209551 0.004176804 0.090711646
000330 92 49 1d be e3 16 be 3c 64 cf a6 3d c5 18 39 3e
       -0.15360096 0.023204273 0.08145025 0.18075855
000340 5a 62 14 3e 4f d1 b0 3c 3e be 67 3d 20 b2 a2 bd
       0.14490643 0.021584181 0.056577913 -0.07944131
000350 77 a1 8b be 5f 4f 43 3e 0f 22 4e 3b 66 5e d6 bd
       -0.27271625 0.19073246 0.0031453406 -0.10467224
000360 5d 3c cf 3e e0 7a a9 3e 69 15 87 3d 01 91 fe 3d
       0.4047574 0.3310156 0.065958805 0.12430001
000370 50 1d 1b 3e 41 3e 0e 3d f3 05 de 3d 7e 89 85 3d
       0.151479 0.03472734 0.108409785 0.06520365
000380 f0 3b 9c 3b fa 1a 77 be 0c ce 84 be a3 51 ba be
       0.0047678873 -0.24131384 -0.2593845 -0.3639041
000390 8d 53 02 be 94 be 07 be 13 1f d2 bd bf 05 4f be
       -0.12727185 -0.13256294 -0.10259833 -0.20217036
0003a0 48 b4 1e bd 85 e4 2c be 4b c2 3a be cf 8a 9e bd
       -0.03874615 -0.16884048 -0.1823818 -0.077413194
0003b0 76 2b b5 be 3a e4 4c 3d 1f 67 8b be a5 ca 8e be
       -0.3538472 0.05002234 -0.27227113 -0.2788898
0003c0 66 0b 58 be ab 35 57 be 14 05 9e 3d f0 97 41 be
       -0.21098098 -0.21016566 0.07715812 -0.18905616
0003d0 84 bf 32 be 44 c1 10 be 86 50 01 be 8e 78 49 be
       -0.1745587 -0.14136225 -0.12628374 -0.19674894
0003e0 ba 07 50 be 28 05 6b bd 89 76 99 bd f1 1d a2 3d
       -0.20315447 -0.057377964 -0.07493312 0.07915867
0003f0 3f a2 3a 3e 92 89 9c 3e 85 c0 8c 3e 8b 02 c7 bc
       0.18225954 0.30573708 0.2749063 -0.024293205

encoder.2.conv2.bias f4 [32]
000000 85 38 76 bb c4 6e e1 bd bb 1a 8a bd f5 01 1f be
       -0.003757031 -0.11007455 -0.0674338 -0.1552809
000010 ac 45 53 be e3 f2 e5 3d 3c 39 bf bc d5 09 45 bd
       -0.20632046 0.112279676 -0.023342721 -0.04810508
000020 59 11 25 bc 03 55 95 be 12 43 4e be 10 24 a4 bd
       -0.010074937 -0.2916642 -0.20142773 -0.08014691
000030 fd 40 e1 bd 8e 69 1c be 16 c3 e7 bd 6d 6b a1 3d
       -0.10998724 -0.15274641 -0.113165066 0.07881818
000040 ca e6 5d bd e3 39 7b ba 00 74 2c be 84 b4 bd bd
       -0.054175176 -0.0009583516 -0.16841125 -0.09262946
000050 f2 11 7b bd d4 1f 91 3d d9 2c 83 be 33 60 b7 3d
       -0.06129641 0.07086149 -0.25620154 0.089538954
000060 4c d7 09 3d a7 77 1f bd 1f 06 bb bd df c8 e1 bd
       0.03365259 -0.03893247 -0.09132027 -0.11024641
000070 23 66 16 be 75 7b f8 bd c5 7c ac bd 63 e9 a9 bd
       -0.146874 -0.121329226 -0.084222354 -0.08296468

encoder.4.conv1.weight f4 [16, 32, 3, 3]
000000 04 e0 0b bd 8d 4e 49 bd f9 a5 f4 bc 5e b1 2a bd
       -0.034149185 -0.049147177 -0.029864298 -0.041673057
000010 d1 82 70 bd a7 5f 10 bc c0 a9 45 bd 0f fb 7e bd
       -0.058718506 -0.008811868 -0.04825759 -0.062251147
000020 09 dd ab 3c ea 04 d3 bc 6e 7b 1b 3e 48 c6 19 3e
       0.020979421 -0.02575918 0.15183803 0.15017045
000030 95 cf f8 3d 7b 5b ce 3d f1 88 09 3e 9c c6 6a 3e
       0.12148968 0.10076042 0.13431145 0.22927326
000040 14 6b 4b 3e 1d 0b a7 3d a0 03 80 3e a5 b2 20 3e
       0.19865066 0.081564166 0.25002766 0.15693147
000050 1f 26 31 3e 5a 00 a7 3e c8 86 29 3e 81 fa f9 3d
       0.17299698 0.32617456 0.16555321 0.12205983
000060 09 84 a3 3e 8d 2f 0b 3e d3 23 e1 3d 8d 38 13 3c
       0.31936672 0.13592358 0.10993161 0.008985651
000070 81 76 ec bc 47 32 f3 bd cd 7d ae 3d 47 f8 a6 3c
       -0.0288651 -0.11874824 0.08520088 0.02038206
000080 f0 65 af bb 22 44 01 be 5c 6f 1e bd e6 c6 f5 bc
       -0.005352728 -0.12623647 -0.03868042 -0.030002069
000090 6d 1d 45 3e be 10 1c be e0 19 62 bd 85 bb 0c bd
       0.19249506 -0.15240762 -0.055200458 -0.03435852
0000a0 5e dd bc bd d8 68 4f 3c c6 32 f8 bd 02 6b 04 3e
       -0.0922191 0.012659274 -0.12119059 0.12931445
0000b0 86 f3 10 3c 51 13 6f bd 57 5f ff bc 0f ce d3 3c
       0.008847123 -0.05836803 -0.031173391 0.025855092
0000c0 b0 5b 1e bd 48 ac c7 bc 5d 15 32 3d 44 70 1a bd
       -0.03866166 -0.024374142 0.043477405 -0.03770472
0000d0 45 1f b6 bc 80 5f a2 3d 78 a9 1f 3e f7 54 c2 ba
       -0.022231707 0.079283714 0.15591991 -0.0014826347
0000e0 02 5c 4d bd 0f f9 c1 3d bf 53 3b be c4 79 35 bd
       -0.050136574 0.09471332 -0.18293665 -0.044305578
0000f0 3e 42 6c 3d 19 ee 00 3d 19 a8 ca 3d 0c e6 37 3c
       0.05768036 0.031477068 0.09895343 0.011224281
000100 f4 06 39 bd 2b af 50 3e c8 c2 93 bd 29 94 fe 3c
       -0.045172647 0.20379321 -0.07214886 0.031076508
000110 97 49 3f 3e af 4e a3 be bb eb 85 bd f0 2c 2c bc
       0.18680416 -0.31895968 -0.06539103 -0.010508761
000120 49 39 d3 3c 31 f3 cb 3d 75 bf de 3d 21 ae a6 bd
       0.025784152 0.099584945 0.10876361 -0.08138681
000130 7e 86 bc 3d 4e db 67 3d fb e2 3d bd 60 13 a5 3d
       0.0920534 0.05660563 -0.046359044 0.08060336
000140 fe 1d 54 bd a8 1a 37 3d 09 6b 28 bd 00 89 27 3d
       -0.051786415 0.044703156 -0.0411177 0.040902138
000150 8f 48 d3 3d 02 e6 41 bd 23 e4 d3 bd a8 94 b7 3d
       0.10316574 -0.047338493 -0.10346248 0.08963901
000160 63 46 1f 3c 22 35 4a be 67 8f ad bd f6 f2 14 be
       0.009721371 -0.19746831 -0.084746175 -0.14545807
000170 29 26 7d be ed 7a c7 bd 9a 7b 2e be cd 21 24 be
       -0.24721588 -0.09740243 -0.17039338 -0.16028519
000180 9a f1 3c 3d 98 42 e5 3a 3a bf ed 3b be b1 0b bd
       0.046128847 0.001749116 0.007255462 -0.034105055
000190 83 1e e9 3d 30 0a 15 bd 04 62 80 bc 26 39 d3 3d
       0.11382773 -0.03638667 -0.015671737 0.103136346
0001a0 b6 3b 14 be 1c f6 a9 bc ba ef ae 3c f9 e5 26 be
       -0.14475903 -0.020747237 0.021354545 -0.16298665
0001b0 c6 47 1b bd 7b 32 c9 bd 43 9b 65 bd 23 66 c2 3b
       -0.037910245 -0.098240815 -0.056056272 0.005932586
0001c0 98 e3 95 bd 59 d5 f8 bc 60 ea 2f 3c 49 23 17 bd
       -0.07318801 -0.03037517 0.010737032 -0.036898885
0001d0 59 eb fe bc 24 0e d3 bd ab c8 7c bd 57 cf f9 bc
       -0.031118082 -0.103054315 -0.06171481 -0.030494375
0001e0 3d f5 2b bc aa be 02 be 4c 08 ca bd 22 db 10 bc
       -0.010495481 -0.12768045 -0.09864864 -0.008841308
0001f0 19 1d 28 be f2 7f c4 bd 1b 9e 61 3d 24 d3 00 be
       -0.1641735 -0.09594716 0.05508242 -0.12580544
000200 04 e7 9f bb cc a6 b8 bd 14 8e 4c bc 3c f2 ec bd
       -0.004879834 -0.09016189 -0.012485046 -0.1156964
000210 75 e6 78 be f5 95 68 be 60 44 34 3d 4e 1e dc 3c
       -0.24306662 -0.22713454 0.04401052 0.02686992
000220 79 cd 8e bd 10 9d ba bd ee c6 c1 3d c9 be 3c 3d
       -0.069727845 -0.091119885 0.09461771 0.046080384
000230 fb 0d 83 bd d9 e0 f8 3c b1 1b b2 3d a4 40 7a bc
       -0.06399151 0.030380653 0.08696688 -0.015274201
000240 78 8d 3b bd fd 16 9a 3c 4a 34 e0 3d 61 a8 18 be
       -0.045789212 0.01880979 0.10947473 -0.14907981
000250 12 64 78 bd 2b 38 c9 3d 3c 99 0e be 07 8e 47 bd
       -0.06064231 0.09825166 -0.13925642 -0.048719432
000260 29 c8 52 3c 97 91 ae 3d ff b1 cb 3d f7 78 ad bc
       0.012865105 0.08523863 0.099460594 -0.021175845
000270 e2 7d 6d 3d a0 d4 0e 3e 78 02 bf 3c e7 24 d5 3d
       0.05798138 0.13948298 0.023316607 0.10407429
000280 5e 0a 43 3d 62 c7 80 bd e4 fa 6d bd 35 79 62 bd
       0.04761731 -0.06288029 -0.058100596 -0.055291373
000290 c8 be 23 3c 2d 4e a0 3c ab 52 93 bd e2 75 46 3d
       0.009994216 0.019568527 -0.07193502 0.048452266
0002a0 22 f4 ef 3c 70 18 2b ba d3 47 2e bd da bd 8a bd
       0.029291216 -0.0006526774 -0.042548966 -0.067744926
0002b0 7a f2 6a 3d 11 b6 2c bd 61 c1 ec bd 2a 0f 12 3e
       0.05736015 -0.04216582 -0.115603216 0.14263597
0002c0 52 03 dc bc bc 42 48 3e 31 ca ab 3d ab 7b 1a be
       -0.026857052 0.19556707 0.08388174 -0.15086238
0002d0 1e 44 ef 3c b7 05 63 3d 23 9a 43 bd 6d 46 29 3d
       0.029207285 0.055425372 -0.047754418 0.04132693
0002e0 2a ad d2 3d 96 c7 e5 bd b0 49 c0 3c 77 4b 55 3e
       0.10286935 -0.112197086 0.023472637 0.20829569
0002f0 59 7c 18 bd 3b 27 3c 3d f4 ed c1 3d 9d df 3a 3d
       -0.037227962 0.04593585 0.09469214 0.04562341
000300 87 02 7f 3c 56 88 d9 3d 37 38 9f 3d b1 13 12 3c
       0.015564567 0.10621707 0.07774394 0.008915828
000310 a3 93 a2 3d 06 e9 49 3d f4 1b 4d 3e 5f ba 0f 3d
       0.07938316 0.049294494 0.20030195 0.035089847
000320 3d 28 d7 bd bb e8 3f 3e 51 26 3f 3c ac ab 04 be
       -0.10505722 0.18741123 0.01166685 -0.12956113
000330 f3 77 f7 3d f6 03 98 bd f3 9b ab be d1 91 ce bc
       0.120834254 -0.074226305 -0.33517417 -0.025216015
000340 8c 7a 00 be 14 03 1e bd 12 93 21 3c 00 7f 0d be
       -0.12546748 -0.038577154 0.009861724 -0.13817978
000350 e4 c2 11 bd 3c f2 d4 3d 0d 24 58 bc 32 f1 53 bc
       -0.035586253 0.10397765 -0.013192189 -0.012935923
000360 72 b3 44 bd 38 4c 9a ba ff af 46 3e e9 4f 49 3d
       -0.048022695 -0.0011771983 0.19403075 0.049148474
000370 15 4e c4 3c e6 e2 0d 3e f6 3a 0e bc 45 88 bc bb
       0.023963014 0.13856086 -0.00868105 -0.0057535493
000380 57 bf c9 3d 15 51 02 3c 86 c0 d1 3c ec d9 87 bc
       0.09850948 0.007953902 0.025604498 -0.016583405
000390 04 90 3f bc e1 e0 45 3c 09 38 10 bc 77 11 73 bc
       -0.011692051 0.012077541 -0.008802422 -0.014835707
0003a0 09 57 e6 3c a0 65 9e bc d9 2c d3 3d 33 36 ff bc
       0.028117673 -0.019335568 0.103112884 -0.031153774
0003b0 4e 49 77 bd b3 97 da 3d c3 91 a3 bc d0 67 8c bd
       -0.060372643 0.106734656 -0.019966966 -0.06855738
0003c0 8a 09 76 3d 5a 0b 7e bd 7b 9e b7 bd 89 9b ec bc
       0.06006769 -0.062022544 -0.089657746 -0.028882759
0003d0 f1 0b a3 3b ab eb b1 bd a2 45 24 3d 84 57 b7 3d
       0.0049757888 -0.08687528 0.04010547 0.08952239
0003e0 07 57 bd bc d1 0a e3 3b 88 34 b0 3d e9 89 76 bd
       -0.023112787 0.0069287797 0.086037695 -0.060190115
0003f0 2f 88 21 3e 29 1d 9c bd 95 e7 33 be 7e 7c 1f bd
       0.15774606 -0.07622749 -0.1756881 -0.038937084

encoder.4.conv1.bias f4 [16]
000000 f0 f0 82 3d 2e f4 6a 3d 7d d5 48 3d ac 30 d5 3d
       0.063936114 0.057361774 0.049031723 0.10409674
000010 f6 4e 14 3d 90 86 c3 3c 02 a7 36 bc 03 39 a9 3d
       0.036208116 0.023867875 -0.011148216 0.08262827
000020 1a 39 82 bd 2f 0c 85 bd 6e 1d 17 3a 09 d8 d3 3c
       -0.063585475 -0.064964645 0.0005764578 0.02585985
000030 e8 69 ec 3d 80 8d 8f 3d eb 3e b7 bc 02 31 06 ba
       0.115436375 0.07009411 -0.022368869 -0.0005118997

encoder.4.conv2.weight f4 [16, 16, 3, 3]
000000 25 66 13 bd 34 4e 82 3d 7b be 55 3d 58 84 a9 3d
       -0.035986084 0.06362572 0.05218361 0.08277196
000010 1a 73 bc bd e5 72 f8 bd 91 05 8e 3b 25 cb 8d 3d
       -0.092016414 -0.121312894 0.0043341597 0.06923512
000020 e3 6d e8 3c b9 89 b7 3d f7 33 15 be ca 26 a2 bc
       0.02837271 0.089618154 -0.14570604 -0.019793887
000030 7b 70 8e bd 0e 07 84 3d ec 5c f3 3d e9 32 1d 3c
       -0.06955048 0.06446658 0.11882958 0.009594657
000040 5a 22 d9 bd c7 5a 20 3e b0 b7 08 bd 2a a3 87 3b
       -0.10602255 0.15659629 -0.033378303 0.0041393237
000050 d7 6e e1 3c ad 93 b1 bd 94 c1 8e 3c 52 26 20 bc
       0.027518673 -0.08670745 0.01742629 -0.009774761
000060 07 79 30 3d 4a 14 a3 3d 51 d4 91 3d 11 7a d6 3d
       0.04308417 0.07962854 0.07120574 0.10472501
000070 f4 d9 88 bc 58 07 2a be c4 49 16 3e 07 a9 9b 3d
       -0.01670549 -0.16604364 0.14676577 0.07600599
000080 19 de e2 bd 95 c5 e8 3d 4d 02 36 3a 53 b2 95 3d
       -0.11077518 0.11365811 0.0006943092 0.07309403
000090 9d e1 db bc ae a9 c5 bc c1 b6 31 3d 72 9f 8f bd
       -0.02684098 -0.024128761 0.04338718 -0.07012834
0000a0 b0 17 bb 38 3a cf 91 3b df 83 14 be 4c c3 ef bd
       8.921267e-05 0.004449752 -0.1450343 -0.11707172
0000b0 33 3e cf bd 46 cd 8a bc e2 b0 22 3d 00 5a 35 bd
       -0.101192854 -0.016943585 0.03971947 -0.044275284
0000c0 4c f3 e2 3d a3 e6 b1 3c a8 31 3d bd bf d2 ac 3d
       0.110815614 0.021716421 -0.046189934 0.08438634
0000d0 ca f0 dc 3d 43 e2 cb 3d c2 9b 2c 3e 3f 48 3e 3e
       0.10788114 0.099552654 0.16856292 0.18582247
0000e0 57 1a d4 3c 94 09 3d 3e 2f 0f 0d 3e 69 b8 05 3e
       0.025891466 0.18460685 0.13775323 0.13058628
0000f0 a7 41 c8 3d 36 ef 46 3c 2d 86 12 3d e6 f6 b7 bd
       0.09778147 0.012141993 0.03577249 -0.08982639
000100 ff 05 04 bd 0b 61 b3 3b a1 85 d8 bd d1 07 16 be
       -0.03223228 0.005474215 -0.10572363 -0.14651419
000110 89 77 8b bd 98 6e 86 bd 2f 2e 25 be a1 8b 02 be
       -0.06809909 -0.06564063 -0.16130899 -0.12748577
000120 03 83 9e 3c b9 95 af bc f8 6c 3d 3d 8a 50 80 3d
       0.01934958 -0.021433698 0.0462465 0.062653616
000130 9e e4 2f bd 5d 8b b8 39 d7 e9 0e 3e 83 42 8e 3b
       -0.042942636 0.0003519905 0.1395639 0.004341425
000140 84 cf 22 3c d9 77 e2 3c f4 d9 09 bd 20 35 50 bc
       0.009937171 0.027645038 -0.033655122 -0.0127079785
000150 a7 a4 60 bd 2a 1f 92 bc 53 03 ac 3d 45 19 48 3b
       -0.054844525 -0.017837126 0.083990715 0.003053264
000160 07 58 86 b9 9f 8c 92 bd 3f a2 94 bd 84 92 26 3e
       -0.00025624057 -0.071557276 -0.072575085 0.16266829
000170 42 a9 d9 bc b2 a0 b1 ba d3 b3 c0 3d 13 39 1d bd
       -0.026569966 -0.0013551919 0.09409299 -0.03838451
000180 db e2 3e 3d b8 a2 36 3e 9d 28 06 3e e1 42 b1 bd
       0.046603065 0.1783551 0.1310143 -0.08655334
000190 4a 0d df 3c 13 74 bc bc f1 d3 8a bd 8e 86 2d 3b
       0.027228016 -0.023004567 -0.06778706 0.0026477906
0001a0 70 88 57 3c ee 96 1d bd 5d 98 d5 ba aa 89 92 bc
       0.013155088 -0.038474016 -0.0016296018 -0.017887909
0001b0 dc 3e 80 bd b1 4e e8 bd 0b 7e d0 bc 58 ac 00 bd
       -0.062619895 -0.11343134 -0.025450727 -0.03141436
0001c0 96 9d d6 bd e3 e0 d7 bc d3 fc 42 bc 23 bc 88 bd
       -0.10479276 -0.026352352 -0.011901098 -0.06676509
0001d0 0d aa 26 bd b8 47 ff 3c 12 2d df 3d 57 9f 4f 3d
       -0.040689517 0.031162128 0.10897268 0.050689068
0001e0 9f 5c bd 3d 56 09 7f bd 69 4d b1 3d 24 5a 24 3e
       0.09246182 -0.062264763 0.08657343 0.16050011
0001f0 eb 9b 11 3e b7 32 48 3d c6 94 db 3d c4 71 a4 3d
       0.14219634 0.04887649 0.10721736 0.080295116
000200 c4 72 ac 3d c2 1a 56 3c b7 9b 88 3d 24 48 55 3e
       0.08420327 0.013067903 0.06670325 0.208283
000210 b7 55 50 3d 2a 6b 70 bd 5e d3 4c 3d 1f 5c 3b be
       0.050862994 -0.05869595 0.050006263 -0.1829686
000220 a9 14 55 be 41 a8 91 bd 7c 12 55 be 1a 71 06 be
       -0.20808662 -0.0711217 -0.20807832 -0.13129082
000230 c9 f4 b0 bd ef dc 23 be b7 8c 18 be fa b8 20 be
       -0.08640439 -0.16002248 -0.14897428 -0.15695563
000240 2e 3d 7c bd 9f 90 ff bd 79 4c 2f be 4f 2b 84 bd
       -0.061581783 -0.12478756 -0.17119016 -0.06453573
000250 70 8f 14 be f3 6e 9b be 9a 13 00 bd 00 7b 05 be
       -0.14507842 -0.30358085 -0.031268694 -0.13035202
000260 11 f6 47 be 51 5e 2e be 77 05 9c bd b1 b0 e0 b9
       -0.1952746 -0.17028166 -0.0761823 -0.00042856255
000270 ab 0e b6 bd 5c 1f 89 be 27 f9 0d bd 8c 9a 93 bd
       -0.088895164 -0.26781738 -0.03466144 -0.07207212
000280 10 85 02 3d de 12 ae 3d 69 ca 65 bd ea df 99 3d
       0.03186518 0.084996924 -0.056101236 0.07513411
000290 41 62 c0 3d 95 95 94 bd eb 40 04 3d 42 81 56 bb
       0.093937404 -0.07255093 0.032288473 -0.0032730852
0002a0 cd e1 d8 3c 20 11 38 3d 9f 17 ac 3d cb ea d9 bc
       0.026474858 0.044938207 0.08402943 -0.026601216
0002b0 04 ed fb 3d bf 36 13 3d b4 ee 0f be 2e 17 25 be
       0.123010665 0.03594088 -0.14055902 -0.16122124
0002c0 c0 13 bf bd ef 5e cb 3c 91 17 c9 3c c9 5b 33 bd
       -0.09329939 0.024825541 0.02454737 -0.043788705
0002d0 96 21 b2 bd b2 4b 07 be d0 11 a7 bd c8 a6 a8 bd
       -0.08697812 -0.13212469 -0.08157694 -0.08234936
0002e0 61 55 c3 bd 54 47 88 bd 57 ab 84 bd 91 f8 80 bd
       -0.09537769 -0.0665423 -0.06477993 -0.0629741
0002f0 d5 d3 82 3c df 6f 95 bd 0e 0a 8b bd 4c 9f e0 3d
       0.01597015 -0.07296728 -0.06789027 0.109678835
000300 09 a7 c0 bd 60 b2 56 bd 5d 19 98 3d 03 24 5a 3c
       -0.094068594 -0.052416205 0.07426713 0.01331425
000310 9c 6c 51 bd 8c 9e a6 3d d6 ac 71 bd b4 24 6c bc
       -0.05112897 0.08135709 -0.05900272 -0.014413048
000320 11 75 32 bc 3d 8b 77 bd 49 96 ed bb fc 8b 9e 3d
       -0.010892169 -0.060435522 -0.0072505814 0.07741544
000330 05 e5 90 bd 98 74 9b bd 0d 05 44 bd 82 f7 b6 bd
       -0.07074932 -0.07590598 -0.04785638 -0.08933927
000340 ad a4 0c be 90 fb 26 be dc 15 3f bd 77 c1 d2 bd
       -0.13734694 -0.16306901 -0.046651706 -0.10290807
000350 c5 3c 8f bd 15 94 6b bd c5 1c 2b be 5f 28 70 bd
       -0.06994013 -0.05751427 -0.16710193 -0.05863225
000360 fd bb 90 bd 41 c9 52 be 35 39 ad bc 8d 17 17 be
       -0.07067106 -0.20584585 -0.021145443 -0.14755078
000370 76 d6 ed bd 2f a3 98 3d 9a e5 c2 3d 53 2d 9a 3d
       -0.11613171 0.07453 0.09516449 0.07528176
000380 e4 8c c1 3d 46 5d 42 be a7 22 1c be 7c 7c 12 3d
       0.09450701 -0.18980893 -0.15247594 0.03576325
000390 e6 b8 ee bd 88 a9 45 bd 7f d3 3a bd d9 db d9 3d
       -0.1165636 -0.04825738 -0.045611855 0.10637636
0003a0 5d 35 98 bd e4 08 84 bc 46 88 de bd 77 a8 6b be
       -0.07432053 -0.01611752 -0.10865836 -0.23013483
0003b0 e2 9d 44 be 89 e1 9f bd dd 11 e1 bd aa 33 9a bd
       -0.19200853 -0.07806689 -0.10989735 -0.075293854
0003c0 9a e5 28 bd 94 55 1f be 5b d2 41 be fd 2a 10 3e
       -0.04123459 -0.15559989 -0.189279 0.14078899
0003d0 4d a7 0c 3e c4 86 18 3e bc 9a bf 3d 58 c5 1f 3d
       0.13735695 0.14895159 0.09355685 0.03900656
0003e0 4c 99 c1 3d 82 54 2a 3e e2 e8 18 3e 4a 3e 33 3e
       0.09453067 0.166338 0.14932588 0.1750423
0003f0 05 96 64 3e a2 d8 7b 3e 22 a3 74 3e 33 32 e5 3d
       0.22322853 0.24594358 0.23890355 0.11191215

encoder.4.conv2.bias f4 [16]
000000 f4 4c 3e 3d ec 75 c2 3d 8c 60 de 3d d1 3b a9 bc
       0.046460107 0.09495148 0.108582586 -0.020658405
000010 75 2b 97 3d 0d 3d 04 bd de 4e a4 bc cd 35 92 bc
       0.07381336 -0.032284785 -0.020057138 -0.01784792
000020 2b b5 c3 bc 96 81 83 bd 9c a5 d8 3d 28 74 fc 3d
       -0.023890099 -0.06421201 0.105784625 0.123268425
000030 79 43 d1 bc bf 98 e2 3d bb f1 31 bd a2 7c 3d 3d
       -0.025544869 0.1106429 -0.043443423 0.046261437
